models/onnx/cls_x0_25_slim_static.onnx (onnx, 982330 bytes, 65 tensors)

conv2d_0.w_0_deepcopy_0 f4 [8, 3, 3, 3]
0.34458053 -0.6432723 0.2829566 0.4727038 -0.9331029 0.44667724 0.29382017 -0.49212688
0.22274722 0.78526616 -0.80516213 -0.018256756 0.99233073 -1.1528037 0.07717987 0.50777894
-0.46007517 0.070781924 0.6967618 -0.5458661 -0.08575639 0.8152523 -0.9534834 -0.0631702
0.43515354 -0.33108157 0.05908194 0.7988813 -0.98836833 0.19816315 1.5624657 -1.3212336
-0.24477561 -2.3084724 2.1422007 0.16250168 0.69712955 -0.8383991 0.13198629 1.29482
-1.0410315 -0.23305495 -2.0853505 1.8651432 0.21428703 1.0010133 -1.1109867 0.11640892
1.3161461 -1.0865706 -0.2445274 -1.798363 1.5889329 0.23582143 0.0003849356 -0.065762214
0.017934063 -0.019462036 -0.50669926 -0.54342604 0.045122057 -0.40741175 -0.47519487 -0.09106341
-0.12251986 -0.40311077 -0.035061777 -0.2750191 -0.72533166 0.011287452 -0.17001408 -0.40829772
0.020086277 -0.062504075 -0.26502836 0.028165946 -0.21773224 -0.58413345 0.0141948555 -0.15195906
-0.27696133 0.124127865 0.1986481 0.08148477 0.041545905 0.03460083 -0.007919013 -0.15660718
-0.22714601 -0.08467531 0.10737766 0.18153633 0.10041688 0.007441233 0.003317289 -0.015773728
-0.11193369 -0.17568102 -0.09663033 0.14002053 0.23794515 0.1075339 0.0068287863 -0.0054037073
-0.023246676 -0.14045487 -0.23352608 -0.093283415 0.34803662 -0.02703877 -0.0027751555 0.5074249
0.38219067 -0.0094960965 0.79392016 0.09486806 -0.0072607026 0.33609244 0.20175569 0.014924571
0.053670526 0.17343782 -0.02324686 -0.056297638 -0.16630903 0.028963272 0.17639062 0.2727652
-0.023452751 0.13016401 0.25556427 0.028253725 0.41048148 0.0388007 -0.016215622 0.007966095
0.009857818 0.0070643043 -0.02049755 -0.035793073 -0.0061252243 -0.01112137 -0.014775149 0.0002664502
0.00329872 -0.0053702635 0.0027796135 -0.021167515 -0.050930914 -0.015338586 0.0032908355 -0.0075432323
0.007577433 0.010579887 0.0040516574 0.003732864 -0.013799557 -0.03270456 -0.010954347 0.011207282
0.008739874 0.0104885055 -0.01752202 -0.1309255 0.1324384 -0.033035863 -0.22546062 0.25412765
-0.020368097 -0.10394417 0.14739634 0.012004175 -0.111517444 0.098459266 0.01688064 -0.20002404
0.18663049 0.003321285 -0.100134216 0.092951484 0.02190742 -0.08083751 0.03964985 0.028801052
-0.1504194 0.122997336 0.017178241 -0.05712045 0.064779095 -0.041708484 -0.080064975 -0.02923015
0.07322762 0.32874775 0.37376443 0.012983431 -0.11571196 -0.30537993 -0.07683144 -0.031827148
0.13956252 0.10172854 0.3063838 0.21061271 -0.08310472 -0.28868023 -0.28239533 -0.0915185
0.019652925 0.13706864 0.19543356 0.40014562 0.17795011 -0.22465098 -0.4493809 -0.35722387
00000000: dc6c b03e 7ead 24bf b0df 903e 3c06 f23e
00000010: d5df 6ebf e1b2 e43e 996f 963e 0ef8 fbbe
00000020: d917 643e 3407 493f 1b1f 4ebf 318f 95bc
00000030: 6309 7e3f 128f 93bf 7b10 9e3d cdfd 013f
00000040: f98e ebbe 1df6 903d fb5e 323f e1bd 0bbf
00000050: 0ca1 afbd 60b4 503f 7d17 74bf 615f 81bd
00000060: 72cc de3e 8683 a9be e8ff 713d 7c83 4c3f
00000070: b505 7dbf 48eb 4a3e e0fe c73f 2f1e a9bf
00000080: 75a6 7abe 03be 13c0 d119 0940 d766 263e
00000090: 1577 323f 53a1 56bf 6a27 073e a9bc a53f
000000a0: 8540 85bf f5a5 6ebe 6276 05c0 03bd ee3f
000000b0: 0f6e 5b3e 3421 803f d034 8ebf cd67 ee3d
000000c0: 7a77 a83f bf14 8bbf 6465 7abe c230 e6bf
000000d0: 2762 cb3f 2c7b 713e 2fd1 c939 57ae 86bd
000000e0: 75ea 923c d96e 9fbc 0bb7 01bf f81d 0bbf
000000f0: e8d1 383d 4698 d0be be4c f3be 747f babd
00000100: b1eb fabd 8964 cebe f09c 0fbd 4ecf 8cbe
00000110: 56af 39bf 01ef 383c 2c18 2ebe 660c d1be
00000120: fa8b a43c 2302 80bd ccb1 87be 45bc e63c
00000130: 33f5 5ebe c589 15bf 8a91 683c 289b 1bbe
00000140: e0cd 8dbe c036 fe3d 686a 4b3e 7de1 a63d
00000150: 0a2c 2a3d 9ab9 0d3d bfbe 01bc a25d 20be
00000160: f798 68be 406a adbd d2e8 db3d a9e4 393e
00000170: 5da7 cd3d 96d5 f33b e066 593b e837 81bc
00000180: 7e3d e5bd bae5 33be 1fe6 c5bd 8b61 0f3e
00000190: e5a7 733e bc3a dc3d 03c4 df3b 9511 b1bb
000001a0: d06f bebc 67d3 0fbe 7621 6fbe 600b bfbd
000001b0: db31 b23e 6980 ddbc 62df 35bb 99e6 013f
000001c0: 7fae c33e 8495 1bbc 5a3e 4b3f 2f4a c23d
000001d0: 30eb edbb 4f14 ac3e 0b99 4e3e 3086 743c
000001e0: a0d5 5b3d af99 313e 3370 bebc 5a98 66bd
000001f0: ea4c 2abe 6244 ed3c be9f 343e e1a7 8b3e
00000200: fc1f c0bc b749 053e 52d9 823e 5b74 e73c
00000210: a12a d23e 7ced 1e3d a0d6 84bc 3984 023c
00000220: af82 213c ae7b e73b 7aea a7bc c29b 12bd
00000230: 1bb6 c8bb 6836 36bc 7713 72bc 57b2 8b39
00000240: 572f 583b 09f9 afbb 2d2a 363b 7f67 adbc
00000250: ef9c 50bd b14e 7bbc 0fab 573b 382d f7bb
00000260: 1d4c f83b 4357 2d3c c4c3 843b 11a3 743b
00000270: 8a17 62bc 37f5 05bd dd79 33bc bf9e 373c
00000280: b031 0f3c fbd7 2b3c 578a 8fbc 5611 06be
00000290: ef9d 073e 9d50 07bd 26df 66be 051d 823e
000002a0: ffda a6bc aee0 d4bd 11ef 163e 29ad 443c
000002b0: 4263 e4bd 03a5 c93d 4549 8a3c 1ad3 4cbe
000002c0: 101c 3f3e eaa9 593b 2b13 cdbd 595d be3d
000002d0: 3177 b33c 238e a5bd e267 223d 2ff0 eb3c
000002e0: 8b07 1abe 07e6 fb3d 62b9 8c3c 22f7 69bd
000002f0: e7aa 843d 84d6 2abd 1bf9 a3bd 1174 efbc
00000300: 5df8 953d a051 a83e 0d5e bf3e 75b8 543c
00000310: 64fa ecbd c25a 9cbe cd59 9dbd 2f5d 02bd
00000320: 7ae9 0e3e 0e57 d03d 56de 9c3e dcaa 573e
00000330: cf32 aabd e5cd 93be 1f96 90be 0d6e bbbd
00000340: 2cff a03c b95b 0c3e bc1f 483e e3df cc3e
00000350: 8e38 363e e80a 66be 4115 e6be 0ce6 b6be

conv2d_0.w_0_deepcopy_0_bias f4 [8]
2.504475 2.4753463 16.680254 2.7601743 -7.2027273 0.5852621 2.8889036 2.7947106
00000000: 5249 2040 136c 1e40 2971 8541 b2a6 3040
00000010: be7c e6c0 bdd3 153f cce3 3840 8adc 3240

conv2d_1.w_0_deepcopy_5 f4 [8, 1, 3, 3]
0.022283971 0.28152844 -0.119311444 0.043677773 2.8676624 -0.3340227 -0.08672155 -0.14522992
-0.0033710946 -0.023142193 0.041425094 0.20661202 0.026381563 0.27494612 -7.0251193 -0.03934494
-0.28482068 6.6711974 -0.7278461 0.7282801 0.0027737094 -0.9588269 0.8590092 0.09169655
0.15283929 -0.08689475 -0.059432108 -0.5256023 2.4545352 0.18996952 0.6474273 6.471569
0.180943 -0.11298251 0.28366905 -0.20933418 0.006837565 0.0017944939 0.01148667 0.011773371
-0.026488248 2.3119793 -0.010631194 -0.013017851 -0.0002169667 6.4268937 82.85377 6.8373985
-9.846254 -72.9393 -13.175823 4.3142533 -12.455656 7.601188 -1.2269495 0.35908565
0.32517767 -9.1864605 -0.23949924 -0.48812747 -0.19768661 -0.04898813 0.10484437 0.16527769
8.157856 0.43834472 -0.5264388 -7.4416237 -0.62133265 0.8025149 -1.1991757 0.3243006
00000000: e08c b63c 7f24 903e 8f59 f4bd 77e7 323d
00000010: c887 3740 0605 abbe 119b b1bd 27b7 14be
00000020: 95ed 5cbb b294 bdbc 5cad 293d 1a92 533e
00000030: 261e d83c bdc5 8c3e c7cd e0c0 2928 21bd
00000040: 04d4 91be 737a d540 1f54 3abf 9170 3a3f
00000050: 1fc7 353b ae75 75bf 07e8 5b3f 67cb bb3d
00000060: e781 1c3e e0f5 b1bd 156f 73bd df8d 06bf
00000070: 1b17 1d40 5f87 423e ccbd 253f 1817 cf40
00000080: 1f49 393e 6063 e7bd 123d 913e b35b 56be
00000090: a70d e03b 3935 eb3a 9632 3c3c 19e5 403c
000000a0: e2fd d8bc 78f7 1340 762e 2ebc d348 55bc
000000b0: 8e81 63b9 1da9 cd40 21b5 a542 f8cb da40
000000c0: 428a 1dc1 ece0 91c2 2cd0 52c1 5d0e 8a40
000000d0: 5e4a 47c1 ef3c f340 ae0c 9dbf 13da b73e
000000e0: b07d a63e befb 12c1 4a3f 75be d8eb f9be
000000f0: 5c6e 4abe c7a7 48bd a5b8 d63d 8e3e 293e
00000100: 9486 0241 b86e e03e b1c4 06bf c821 eec0
00000110: a80f 1fbf 9e71 4d3f 977e 99bf ba0a a63e

conv2d_1.w_0_deepcopy_5_bias f4 [8]
-6.779259 -0.91658735 16.39593 -14.133356 -1.9978714 6.0922127 29.180338 -0.49167264
00000000: b1ef d8c0 78a5 6abf dd2a 8341 3a22 62c1
00000010: 40ba ffbf 68f3 c240 5571 e941 84bc fbbe

conv2d_2.w_0_deepcopy_10 f4 [8, 8, 1, 1]
0.0378955 0.0017999264 -0.26894265 0.0012940652 0.001738769 -0.002056346 0.02218147 -0.0024599675
-0.00234411 -0.008200732 -0.080148 1.372482 -0.0043852758 -1.2999064 0.015505812 0.45036045
-0.002122423 -0.00012127207 -0.14692801 -0.40226752 0.15418874 0.19848308 0.037177995 -0.09955659
-0.2632635 -0.009604426 0.010992366 -0.010992057 1.046865 -0.003709121 -0.019020764 -0.049629435
0.88223165 0.04300529 -0.42528865 -0.03117207 0.333267 -0.12268408 -0.13662623 -0.23245858
-0.011523726 0.0002506886 0.00028344715 0.00091779244 0.003960838 0.0004576328 -0.024460537 0.0009967634
-0.004929023 0.5776126 -0.0010771806 0.004124485 0.0025669173 -0.0035024113 -0.0015693709 0.0136166625
-0.007987293 -0.0045144605 0.0683612 -1.2089252 -0.04253637 1.1611239 -0.041811045 0.43436915
00000000: 5038 1b3d 82eb eb3a dab2 89be 9f9d a93a
00000010: 68e7 e33a c3c3 06bb eab5 b53c 6837 21bb
00000020: a49f 19bb 5d5c 06bc a224 a4bd 7dad af3f
00000030: 5cb2 8fbb 5563 a6bf 170c 7e3c a595 e63e
00000040: 5918 0bbb 7253 feb8 4c74 16be 02f6 cdbe
00000050: a7e3 1d3e 263f 4b3e f447 183d 53e4 cbbd
00000060: 79ca 86be e25b 1dbc 5319 343c 0718 34bc
00000070: acff 853f b914 73bb 6fd1 9bbc 3c48 4bbd
00000080: efd9 613f 5126 303d 6fbf d9be 925c ffbc
00000090: f9a1 aa3e ca41 fbbd bfe7 0bbe 9f09 6ebe
000000a0: 03ce 3cbc db6e 8339 a29b 9439 0298 703a
000000b0: ebc9 813b 6fee ef39 7761 c8bc d4a5 823a
000000c0: a483 a1bb 6bde 133f 2f30 8dba b026 873b
000000d0: ba39 283b b688 65bb 59b3 cdba 6c18 5f3c
000000e0: 23dd 02bc 0aee 93bb f500 8c3d 10be 9abf
000000f0: 9e3a 2ebd b59f 943f 0f42 2bbd a265 de3e

conv2d_2.w_0_deepcopy_10_bias f4 [8]
7.284697 -3.928182 13.5182705 -0.19405836 9.968952 -0.07616778 2.8883235 6.5500994
00000000: 3d1c e940 5567 7bc0 d64a 5841 3cb7 46be
00000010: d480 1f41 dafd 9bbd 4bda 3840 6a9a d140

conv2d_3.w_0_deepcopy_15 f4 [8, 1, 3, 3]
0.0028805174 0.0066510644 -0.015542403 0.02508137 -0.524978 -0.030066887 -0.03031443 -0.41652215
-0.054812368 0.00059825176 0.028502075 -0.00065929594 -0.0075789266 0.06694328 -0.0030775433 -0.008853379
0.054927193 0.00097121095 -0.013032664 0.111398384 -0.07975729 0.34916428 -0.41604388 0.07916557
-0.105686046 -0.50488317 0.6594581 -0.065997414 -0.05392948 0.023702199 -0.21630861 3.015524
-0.060666237 0.07440383 -0.16069508 -0.0121984575 -0.018466914 -0.012773576 0.013882459 -0.03187066
-0.046974126 0.02692481 -0.015384165 -0.035034407 0.018456483 0.14255859 -2.7007442 -0.9064115
0.00049807475 -6.3489404 -3.8823261 0.24711195 -3.3377614 -2.893839 5.7874415e-05 0.001142
0.046732403 -0.00040665045 0.0008035608 0.17808487 7.81018e-05 0.00042105655 0.12404926 0.0039556385
-0.02878244 0.0002833266 0.00543998 -0.056456685 0.0006192145 0.004297452 -0.03710592 -0.001966311
00000000: 10c7 3c3b 2cf1 d93b 90a5 7ebc 7277 cd3c
00000010: f564 06bf d54e f6bc f855 f8bc 6442 d5be
00000020: ef82 60bd ffd3 1c3a 2f7d e93c 9ad4 2cba
00000030: a558 f8bb 8f19 893d 9cb0 49bb c30d 11bc
00000040: 56fb 603d dd98 7e3a f486 55bc d624 e43d
00000050: ca57 a3bd a9c5 b23e b403 d5be 8f21 a23d
00000060: ed71 d8bd 0640 01bf 3fd2 283f a729 87bd
00000070: 29e5 5cbd 1d2b c23c 0180 5dbe 58fe 4040
00000080: 297d 78bd 0961 983d 408d 24be 0adc 47bc
00000090: ed47 97bc 4348 51bc 4173 633c cf8a 02bd
000000a0: f167 40bd 6b91 dc3c dd0d 7cbc 3d80 0fbd
000000b0: 0d32 973c e1fa 113e fed8 2cc0 960a 68bf
000000c0: 3b91 023a 852a cbc0 0878 78c0 ea0a 7d3e
000000d0: e29d 55c0 a834 39c0 2ebe 7238 29af 953a
000000e0: 7a6a 3f3d b333 d5b9 0da6 523a e15b 363e
000000f0: 96ca a338 41c1 dc39 8a0d fe3d 4d9e 813b
00000100: 27c9 ebbc 748b 9439 dc41 b23b 203f 67bd
00000110: c852 223a a4d1 8c3b 61fc 17bd 39dd 00bb

conv2d_3.w_0_deepcopy_15_bias f4 [8]
5.76194 2.5586572 0.6145417 -2.842812 2.8337457 2.230879 3.286447 2.832087
00000000: d061 b840 0ac1 2340 9b52 1d3f a2f0 35c0
00000010: 175c 3540 b9c6 0e40 2655 5240 ea40 3540

conv2d_4.w_0_deepcopy_20 f4 [16, 8, 1, 1]
-0.51573426 0.32691118 -0.008154848 0.040872496 -0.02591311 0.102933 0.0007848675 0.38268855
-1.1432964 -0.09898647 -0.08213995 0.09917705 0.19558802 -0.1633141 0.0042871186 -0.19861159
-0.03999348 0.05207971 -0.0022360906 0.0029204942 0.011968602 -0.015619481 -0.0008001923 0.05632688
-0.12398957 -0.086777784 -0.020634552 0.020632008 0.004462129 0.0013644476 0.00019260758 -0.08705962
-0.05863612 0.00069863437 0.0069121737 0.0027486864 0.056665793 -0.11572935 -0.00077445264 -0.002444781
-5.0741477 2.9456208 0.05886034 0.21702449 0.6972046 -2.4057822 0.029027656 3.7603285
-2.1037574 -0.09688821 0.05118949 0.07853882 -1.268606 1.4700959 0.031543802 -0.18735105
2.9006236 2.1081176 0.2655158 0.042789992 -0.4261736 0.8319306 0.053924467 2.8100235
-0.90798616 -0.60262215 -3.8001778 0.3951486 1.8600453 1.1256166 -0.087472126 -0.17291611
0.14654611 -0.68671405 0.03009141 -2.99894 -0.48415565 -1.6066188 0.016876336 0.74279577
0.005094651 -0.2573865 0.009809542 0.0056579057 -1.8241373e-05 -0.0030343477 0.0048022987 0.31673566
0.050640345 -0.29733709 0.0074163317 0.068358265 -0.016555 0.017934315 0.006281595 -0.20819212
0.0038551497 -0.03129176 -0.004190129 0.006594416 0.0023023305 -0.0044965693 1.4883559 0.038077027
-0.033655364 -0.12062684 0.07141635 0.88039696 -0.091906935 -1.0944128 0.004701464 0.023421478
-20.201923 -1.7524397 -1.7393153 12.461583 -1.2286258 -21.220076 0.17243096 0.1634753
0.05056657 0.063191116 0.0019133519 -0.0009378977 0.0064615873 -0.003388852 0.00172264 0.07216813
00000000: 2907 04bf e760 a73e e99b 05bc eb69 273d
00000010: bb47 d4bc 89ce d23d 91bf 4d3a c1ef c33e
00000020: 8957 92bf 6bb9 cabd fd38 a8bd 561d cb3d
00000030: 3a48 483e d03b 27be f57a 8c3b d660 4bbe
00000040: 34d0 23bd 8951 553d 608b 12bb c365 3f3b
00000050: f517 443c dae8 7fbc ffc3 51ba 04b7 663d
00000060: 3eee fdbd 8db8 b1bd cb09 a9bc 7504 a93c
00000070: 0d37 923b 44d7 b23a b4f6 4939 504c b2bd
00000080: 6e2c 70bd 8f24 373a 847f e23b 4e23 343b
00000090: 641a 683d 8203 edbd a304 4bba 9e38 20bb
000000a0: 6b5f a2c0 0d85 3c40 8a17 713d ab3b 5e3e
000000b0: 007c 323f 56f8 19c0 68cb ed3c 39a9 7040
000000c0: f6a3 06c0 536d c6bd 12ac 513d f6d8 a03d
000000d0: ae61 a2bf 1a2c bc3f 1334 013d f4d8 3fbe
000000e0: d1a3 3940 66eb 0640 b0f1 873e 8f44 2f3d
000000f0: 6d33 dabe 67f9 543f e7df 5c3d 6dd7 3340
00000100: c871 68bf 7245 1abf 1d36 73c0 eb50 ca3e
00000110: f715 ee3f 3414 903f 9624 b3bd ec10 31be
00000120: 2f10 163e 7ecc 2fbf 4382 f63c a2ee 3fc0
00000130: 40e3 f7be afa5 cdbf 3e40 8a3c dd27 3e3f
00000140: 08f1 a63b 2ac8 83be 34b8 203c f465 b93b
00000150: 0d05 99b7 e8db 46bb 9a5c 9d3b 2d2b a23e
00000160: 406c 4f3d 913c 98be b304 f33b 6bff 8b3d
00000170: 5a9e 87bc fcea 923c d7d5 cd3b 5130 55be
00000180: aea6 7c3b ca2b 00bd 5a4d 89bb f915 d83b
00000190: b2e2 163b f557 93bb 7282 be3f a8f6 1b3d
000001a0: 35da 09bd 340b f7bd bc42 923d b261 613f
000001b0: b439 bcbd b815 8cbf bd0e 9a3b 66de bf3c
000001c0: 8a9d a1c1 f24f e0bf e2a1 debf a562 4741
000001d0: 9c43 9dbf b7c2 a9c1 be91 303e 1266 273e
000001e0: e41e 4f3d 586a 813d 70c9 fa3a 40dd 75ba
000001f0: b9bb d33b 8117 5ebb 35ca e13a e2cc 933d

conv2d_4.w_0_deepcopy_20_bias f4 [16]
2.2176533 6.575966 -0.15192334 0.8118864 0.30620965 3.865597 7.6330395 -16.859144
3.2117643 6.4603643 -0.030271197 1.1324905 -3.4356534 3.5160184 128.57195 -0.49720904
00000000: 08ee 0d40 506e d240 cb91 1bbe cad7 4f3f
00000010: 83c7 9c3e f165 7740 dc41 f440 87df 86c1
00000020: 8c8d 4d40 4ebb ce40 4dfb f7bc 73f5 903f
00000030: bfe1 5bc0 7206 6140 6b92 0043 2f92 febe

conv2d_5.w_0_deepcopy_25 f4 [16, 1, 3, 3]
0.89097905 0.7836385 -1.6362661 -0.9940323 -13.0683365 14.093325 -0.11750071 2.799069
-2.731509 0.29313928 0.0499624 -0.20201671 0.16477299 5.1182184 -5.8011203 -0.070095636
1.7596269 -1.7698131 -2.4893131 -14.845075 16.17509 -13.174783 -23.784966 -217.7146
20.335579 169.7068 38.55008 -5.3784013 5.344098 -6.966671 -7.666824 -104.23064
89.646614 9.12835 10.30345 8.352487 0.5486432 -1.383646 -5.897713 -1.353245
-4.2538557 -39.533165 -1.9395938 -9.75062 -19.78498 -0.06868674 0.13407148 -0.1185095
0.13775076 0.31610447 0.74666125 -0.193397 -0.48063323 0.70164627 0.009574255 0.0076375324
0.21402936 -0.045008756 0.023853578 1.2477212 0.017982671 0.14419149 0.471653 -0.023946967
-0.14584601 0.17972742 0.09254134 0.1694639 1.2630666 0.07427561 0.22529761 -0.258434
-0.087346055 0.1127998 -0.031402905 0.15585469 1.1147907 -1.1983088 -0.100337625 -1.135715
1.315766 0.27702084 2.088206 0.3369449 0.34943166 -4.4005394 -0.20775013 0.2667868
0.2243282 0.198521 0.3456955 2.4386952 4.8217816 -0.049513552 -18.951757 -12.090047
3.25878 -16.326664 -2.7251115 -2.801245 -18.378433 -11.442913 -6.0981236 -31.62756
-17.230679 7.302137 49.573246 30.183546 -0.08004051 -0.10650282 -0.0051380717 4.3833075
0.07920645 0.00069725903 0.20584753 -0.041537985 -0.011913922 -0.047156762 -0.9733823 -0.41247046
0.5020362 10.437023 0.27611607 -0.018748181 -0.37486213 -0.2067857 -0.005833648 0.0019410995
-0.004106743 -8.5133404e-05 -0.097663395 -0.38629213 -0.0068861395 0.007974878 -0.02499544 -2.6271813
11.482075 -14.431979 -33.475548 -144.31172 -31.909763 18.14372 26.58399 157.90134
00000000: 3417 643f 889c 483f 2b71 d1bf e778 7ebf
00000010: e817 51c1 427e 6141 36a4 f0bd f223 3340
00000020: 0bd1 2ec0 5a16 963e 60a5 4c3d 78dd 4ebe
00000030: 40ba 283e 72c8 a340 c7a2 b9c0 4d8e 8fbd
00000040: 743b e13f 3c89 e2bf e850 1fc0 6d85 6dc1
00000050: 9666 8141 e9cb 52c1 9c47 bec1 f0b6 59c3
00000060: 44af a241 f1b4 2943 4833 1a42 dd1b acc0
00000070: da02 ab40 f8ee dec0 9f56 f5c0 1676 d0c2
00000080: 114b b342 b90d 1241 eeda 2441 c9a3 0541
00000090: e173 0c3f 501b b1bf 11ba bcc0 2237 adbf
000000a0: 961f 88c0 f621 1ec2 9c44 f8bf 8a02 1cc1
000000b0: a447 9ec1 a2ab 8cbd 094a 093e 1cb5 f2bd
000000c0: 890e 0d3e 72d8 a13e 3125 3f3f dd09 46be
000000d0: 8f15 f6be 179f 333f 56dd 1c3c 4444 fa3b
000000e0: 832a 5b3e 1a5b 38bd 9468 c33c 54b5 9f3f
000000f0: 6550 933c efa6 133e 817c f13e 6e2c c4bc
00000100: a858 15be 770a 383e 5086 bd3d f287 2d3e
00000110: 2bac a13f d01d 983d 6bb4 663e 7651 84be
00000120: 7de2 b2bd 9503 e73d 55a0 00bd 5f98 1f3e
00000130: 76b1 8e3f 2f62 99bf d07d cdbd 1c5f 91bf
00000140: 056b a83f add5 8d3e 2ba5 0540 0b84 ac3e
00000150: b5e8 b23e 38d1 8cc0 73bc 54be 4898 883e
00000160: 4bb6 653e 1749 4b3e 00ff b03e 9513 1c40
00000170: 094c 9a40 b9ce 4abd 339d 97c1 d570 41c1
00000180: da8f 5040 029d 82c1 3a68 2ec0 9947 33c0
00000190: 0807 93c1 2c16 37c1 d423 c3c0 3e05 fdc1
000001a0: 6ed8 89c1 1bab e940 014b 4642 e777 f141
000001b0: 47ec a3bd 271e dabd 455d a8bb 0e44 8c40
000001c0: fe36 a23d 43c8 363a b2c9 523e bc23 2abd
000001d0: 9c32 43bc 7327 41bd 952f 79bf 542f d3be
000001e0: 7285 003f 0cfe 2641 165f 8d3e c995 99bc
000001f0: eeed bfbe a1bf 53be 3028 bfbb 7e6c fe3a
00000200: db91 86bb a689 b2b8 bf03 c8bd 15c8 c5be
00000210: 20a5 e1bb 10a9 023c 3dc3 ccbc bd23 28c0
00000220: 94b6 3741 63e9 66c1 f6e6 05c2 cd4f 10c3
00000230: 3247 ffc1 5726 9141 03ac d441 bee6 1d43

conv2d_5.w_0_deepcopy_25_bias f4 [16]
-1.0516956 0.95508194 -0.101096824 -0.16394588 1.9435003 -3.3899386 -0.7377362 -8.654376
2.2864347 13.050066 4.9937367 -0.5979094 -9.550245 -1.4373299 7.3709726 -0.10759791
00000000: f69d 86bf 4080 743f da0b cfbd 6ee1 27be
00000010: 9ec4 f83f c1f4 58c0 48dc 3cbf 5378 0ac1
00000020: f254 1240 12cd 5041 b1cc 9f40 9710 19bf
00000030: cecd 18c1 6dfa b7bf 02df eb40 4b5c dcbd

conv2d_6.w_0_deepcopy_30 f4 [16, 16, 1, 1]
0.021403816 -0.022208108 -0.008741264 0.00511599 -0.014557104 -0.028801244 -0.05538443 -0.02757541
-0.032494165 -0.17520009 0.010235904 0.004614299 -0.0013433768 0.014734364 -0.039905414 0.0030912012
-0.0018524332 0.00035135692 -0.0027596396 -0.0014414752 0.0027440412 -0.00025594435 0.0027111026 0.000226394
-0.0052673616 -0.0024438936 0.0044986135 -0.0007564039 -0.015940676 -0.0060500684 -0.0007567394 -0.0016558908
-0.015213955 -0.023774607 0.0023775115 -0.02237032 -0.0060599335 -0.0029348398 -0.0031555905 0.0013051174
-0.009699619 -0.008166306 -0.000864796 0.005332836 0.0031818151 -0.0039514964 -0.0016336639 0.0020709978
-0.0024419986 0.0029949879 -0.0035613612 -0.0044288654 -0.07638164 0.0019473723 0.0724329 -0.0028456564
0.0033691584 0.0008148531 -0.0005318129 0.0009940037 -0.0012349385 -0.02444939 -0.0781193 0.0013210797
0.009952319 0.06743358 0.07731592 0.005132325 -0.02843528 -0.00792289 -0.015272688 -0.009827852
-0.0113132885 -0.05044164 -0.13307849 -0.014204201 -0.01089924 0.002545744 0.010546595 0.050741024
0.01909982 -0.0045483327 0.007690806 -0.028176485 0.017780634 0.019129125 -0.028658576 -0.03666278
-0.0045741843 -0.002115024 -0.0097617125 -0.0039753714 0.00022323754 -0.002862235 -0.009508046 -0.024730247
-0.00044292997 -0.0056139985 -0.0012137907 0.0016515416 -0.040605918 -0.00075113674 -0.04392676 -0.0030684555
0.0009701295 -9.992165e-05 -0.0007447713 -0.0014368795 -0.0001568333 0.0028620567 -0.005854223 0.0005528294
0.001942114 -0.0016530924 0.0021254998 0.0010873683 -0.0035565319 -0.0008680782 -0.0021365478 0.0013519437
0.000904954 0.00037291995 0.022426788 0.003521159 0.00012915413 -0.0003494722 -0.0005885556 0.0015573773
-0.1592948 -0.6495019 0.65601295 0.18937214 -0.14201285 -0.060054015 -0.29219675 -0.07925613
-0.17456858 -0.19219062 0.07524976 1.2449952 -0.16052906 0.0033145184 -0.08065794 0.80284655
-0.022717357 0.000349248 -0.028019644 0.024326226 -0.035380762 -0.036623888 0.0024565645 0.023349674
0.004346656 0.00047766813 -0.012530953 -0.009834895 0.0014315186 -0.0034073978 -0.0035749902 0.010551851
-0.0061546387 0.015362816 -0.009835125 -0.0011788927 0.001087575 0.0042805984 -0.002985705 -0.01139775
-0.022574902 -0.03228541 0.007336042 0.0022349902 -0.0008760358 -0.20677394 0.006541446 -0.0038273402
0.052786786 -0.023835016 -0.027407771 0.04705115 0.052602146 0.10042847 0.017413294 0.037365284
0.0050645047 -0.015731951 -0.20982948 0.11995429 -0.010495977 -0.07547784 -0.0026268803 -0.038124125
-0.516398 -0.22078413 -0.015517422 -0.20177232 -0.03633125 -0.022781465 -0.14697352 0.01611703
-0.019032996 -0.008611209 -0.06697481 0.008173554 0.0047812164 -0.01695937 -0.04667875 -0.017780466
-0.002126844 -0.0066382713 0.0027537043 -0.0020953848 0.020820241 0.00616501 -0.045595676 0.0035214685
0.007083243 -0.011503382 0.0028617256 -0.001368068 -0.0017935918 -0.05045038 0.11864616 -0.0064111557
-0.0003784613 -0.004276037 0.00588673 -0.016516687 -0.023032447 0.0032361567 0.0003892906 0.023167226
-0.0217378 -0.005863955 -0.05922559 0.0036934966 -0.4650204 0.009062393 0.0002583468 0.0019894189
-0.010207587 -0.0068537523 -0.010435956 0.032101702 -0.017347684 0.01104269 -0.02614079 0.035829708
-1.2138258 -0.0035346567 -0.033555504 -0.0029747381 -0.030279545 -0.003118186 -0.020268876 0.008919411
00000000: 0e57 af3c c7ed b5bc 8537 0fbc 09a4 a73b
00000010: eb80 6ebc 96f0 ebbc c9da 62bd d4e5 e1bc
00000020: 9a18 05bd a767 33be 7eb4 273c 8c33 973b
00000030: 3f14 b0ba 6768 713c dc73 23bd c095 4a3b
00000040: 58cd f2ba 5436 b839 12db 34bb e2ef bcba
00000050: 5fd5 333b 4530 86b9 c1ac 313b 2d64 6d39
00000060: d599 acbb bb29 20bb 1b69 933b 6849 46ba
00000070: 0596 82bc a73f c6bb ec5f 46ba 7a0a d9ba
00000080: f443 79bc f7c2 c2bc 06d0 1b3b f641 b7bc
00000090: 6892 c6bb 7156 40bb 06ce 4ebb 7910 ab3a
000000a0: 27eb 1ebc f8cb 05bc 7ab3 62ba 12bf ae3b
000000b0: 0086 503b 8e7b 81bb aa20 d6ba 94b9 073b
000000c0: f009 20bb 8f47 443b ba65 69bb 0420 91bb
000000d0: fa6d 9cbd f93e ff3a b357 943d 317e 3abb
000000e0: 19cd 5c3b de9b 553a 5c69 0bba 3b49 823a
000000f0: a9dd a1ba 164a c8bc 03fd 9fbd 1428 ad3a
00000100: 0d0f 233c 9e1a 8a3d cf57 9e3d 102d a83b
00000110: 1bf1 e8bc 02cf 01bc 4c3a 7abc 0005 21bc
00000120: 5f5b 39bc e59b 4ebd ba45 08be bdb8 68bc
00000130: ba92 32bc 7fd6 263b a0cb 2c3c d2d5 4f3d
00000140: 3a77 9c3c 2e0a 95bb 2803 fc3b 5fd2 e6bc
00000150: b1a8 913c afb4 9c3c 64c5 eabc b62b 16bd
00000160: 0ae3 95bb 379c 0abb 97ef 1fbc d543 82bb
00000170: df14 6a39 5694 3bbb a3c7 1bbc 1697 cabc
00000180: 0e39 e8b9 a2f5 b7bb 0f18 9fba 8a78 d83a
00000190: 6452 26bd efe7 44ba 8cec 33bd 2418 49bb
000001a0: 4a50 7e3a 078d d1b8 c23c 43ba ad55 bcba
000001b0: 9e73 24b9 5891 3b3b c8d4 bfbb c1eb 103a
000001c0: 888e fe3a 94ac d8ba f84b 0b3b 0786 8e3a
000001d0: b414 69bb be8f 63ba 5305 0cbb b433 b13a
000001e0: 6f3a 6d3a 7884 c339 62b8 b73c 3fc3 663b
000001f0: 8c6d 0739 5d39 b7b9 4c49 1aba e920 cc3a
00000200: 2d1e 23be c245 26bf 77f0 273f c5ea 413e
00000210: d16b 11be 33fb 75bd d09a 95be 0a51 a2bd
00000220: 1bc2 32be 9ecd 44be 8c1c 9a3d 015c 9f3f
00000230: bb61 24be 6438 593b fd2f a5bd 5a87 4d3f
00000240: c019 babc 461b b739 7489 e5bc cb47 c73c
00000250: 6beb 10bd ee02 16bd 50fe 203b d147 bf3c
00000260: 656e 8e3b 886f fa39 a04e 4dbc 8a22 21bc
00000270: cba1 bb3a a64e 5fbb 624a 6abb ace1 2c3c
00000280: daac c9bb 52b4 7b3c 8123 21bc 1385 9aba
00000290: f68c 8e3a 4344 8c3b d1ab 43bb a1bd 3abc
000002a0: 00ef b8bc b53d 04bd 2e63 f03b ea78 123b
000002b0: c4a5 65ba 8cbc 53be a059 d63b 1dd4 7abb
000002c0: f536 583d a741 c3bc 4386 e0bc b5b8 403d
000002d0: 5975 573d 71ad cd3d 53a6 8e3c 570c 193d
000002e0: 25f4 a53b 4be0 80bc 8add 56be 98aa f53d
000002f0: 51f7 2bbc 2094 9abd bd27 2cbb 0b28 1cbd
00000300: a932 04bf 3c15 62be c93c 7ebc 679d 4ebe
00000310: 14d0 14bd 32a0 babc 3a80 16be dd07 843c
00000320: 16eb 9bbc 0716 0dbc 172a 89bd 5fea 053c
00000330: c0ab 9c3b 60ee 8abc 3832 3fbd 57a8 91bc
00000340: 8562 0bbb db85 d9bb 7e77 343b b952 09bb
00000350: 368f aa3c da03 ca3b 88c2 3abd 70c8 663b
00000360: 8d1a e83b ae78 3cbc ca8b 3b3b bf50 b3ba
00000370: f416 ebba 0fa5 4ebd c2fc f23d ac14 d2bb
00000380: 376c c6b9 001e 8cbb 78e5 c03b 014e 87bc
00000390: 8bae bcbc b315 543b b319 cc39 32c9 bd3c
000003a0: 7913 b2bc 6b26 c0bb 8896 72bd 970e 723b
000003b0: 2717 eebe 6e7a 143c b872 8739 e960 023b
000003c0: b93d 27bc 7195 e0bb 92fb 2abc 137d 033d
000003d0: bb1c 8ebc 66ec 343c 3625 d6bc 2cc2 123d
000003e0: a55e 9bbf b3a5 67bb 7f71 09bd d3f3 42bb
000003f0: cf0c f8bc 7b5a 4cbb ea0a a6bc b922 123c

conv2d_6.w_0_deepcopy_30_bias f4 [16]
2.2442296 -0.03726779 0.33512202 -1.2256854 3.5545106 0.12007058 0.55892134 0.13990681
6.069113 0.14071722 0.3339745 2.8500233 1.3113165 0.33678457 3.8343363 1.9832842
00000000: 75a1 0f40 1ca6 18bd 1d95 ab3e 42e3 9cbf
00000010: 1a7d 6340 90e7 f53d 7815 0f3f bb43 0f3e
00000020: 2c36 c240 2d18 103e b5fe aa3e c866 3640
00000030: 38d9 a73f 076f ac3e c465 7540 42dc fd3f

conv2d_7.w_0_deepcopy_35 f4 [16, 1, 3, 3]
-0.08202112 -0.8913868 0.18174012 -0.23196606 -1.915268 0.50245774 -0.1335813 -1.6804106
0.45436737 0.31492877 -7.105058 0.4968431 0.24857196 -11.918372 0.2691449 -0.61905247
-6.77347 -0.66720676 0.048587 1.3801061 0.36276647 0.5728211 3.5475643 1.6974102
0.32528633 3.1751587 1.293452 -0.9740943 1.6620618 -0.73762864 0.9715292 6.1148953
0.66360694 1.5903575 5.4929967 0.93354017 0.012140319 0.20097694 0.09219102 0.0689026
0.3929576 0.11126528 0.057515938 0.35213828 0.087806925 0.044655565 2.2866588 0.012891236
0.26197723 4.514054 0.14889982 0.4883082 3.255699 0.34122887 0.60854095 -0.89508617
0.5498244 1.4771738 -7.8014855 1.5333408 1.5010228 -7.8862815 1.6975704 -0.8834683
4.1007786 -0.90582865 -0.9939627 8.9761305 -0.5150583 0.661598 6.364606 0.64372814
-0.0014180194 -0.062365357 0.003587978 -0.02226476 -0.2213209 -0.044282164 -0.011305121 -0.15410702
-0.039597794 -0.2897124 2.0457823 0.33317703 0.35484254 3.8919663 0.6511136 0.99470544
2.6119564 0.50452113 -1.0869286 -2.341008 -1.146722 -0.9821395 -5.1475735 -1.7212524
-0.6028367 -4.2711334 -1.3843615 -0.020133208 -0.15196203 -0.026446328 -0.055515446 -0.21502468
-0.018094927 -0.058768086 -0.1629463 -0.007749599 -0.10936922 0.5266466 0.04143792 -0.19441266
1.7023292 0.5193764 0.053764995 1.4847828 0.49976125 2.1357217 -1.1641157 -1.088009
7.6250525 -1.9874789 -5.615667 3.6232643 -2.7486026 -0.9452787 -0.039076656 0.15577468
-0.021581303 0.113913245 0.56342304 0.020539919 0.033807475 0.38647237 -0.036529288 -0.13764143
-0.49939853 -0.26792777 -0.6063461 -1.1613703 -0.50656766 -0.35685122 -0.63088614 -0.12755448
00000000: b0fa a7bd ed31 64bf 151a 3a3e 8388 6dbe
00000010: 8027 f5bf 12a1 003f 89c9 08be b217 d7bf
00000020: d7a2 e83e 583e a13e a35c e3c0 3862 fe3e
00000030: a689 7e3e a7b1 3ec1 5ccd 893e 397a 1ebf
00000040: 44c0 d8c0 10ce 2abf 2a03 473d 51a7 b03f
00000050: 87bc b93e 67a4 123f 4b0b 6340 bd44 d93f
00000060: ee8b a63e cd35 4b40 d68f a53f 3e5e 79bf
00000070: 71be d43f 3bd5 3cbf 23b6 783f 39ad c340
00000080: 25e2 293f d690 cb3f a1c6 af40 7dfc 6e3f
00000090: 30e8 463c e6cc 4d3e a5ce bc3d ce1c 8d3d
000000a0: bd31 c93e 0ddf e33d d595 6b3d 784b b43e
000000b0: 1ed4 b33d c1e8 363d 9e58 1240 c335 533c
000000c0: e121 863e 2173 9040 3279 183e 8803 fa3e
000000d0: 5f5d 5040 8db5 ae3e 57c9 1b3f 5e24 65bf
000000e0: 4bc1 0c3f 0814 bd3f c5a5 f9c0 8344 c43f
000000f0: 8421 c03f 6b5c fcc0 fd49 d93f fa2a 62bf
00000100: 9439 8340 63e4 67bf 5774 7ebf 3b9e 0f41
00000110: dcda 03bf 7d5e 293f daaa cb40 5ecb 243f
00000120: d6dc b9ba d172 7fbd 4824 6b3b 9664 b6bc
00000130: f2a1 62be 3761 35bd 1d39 39bc 3bce 1dbe
00000140: 4c31 22bd 2f55 94be 19ee 0240 2e96 aa3e
00000150: ecad b53e fa15 7940 62af 263f 04a5 7e3f
00000160: 4b2a 2740 4c28 013f 7a20 8bbf 13d3 15c0
00000170: c9c7 92bf 7f6d 7bbf ecb8 a4c0 0052 dcbf
00000180: 8253 1abf 20ad 88c0 c232 b1bf 66ee a4bc
00000190: ef9b 1bbe f8a5 d8bc 2a64 63bd 6e2f 5cbe
000001a0: d03b 94bc ceb6 70bd 65db 26be 59f0 fdbb
000001b0: f8fc dfbd 50d2 063f cfba 293d 1d14 47be
000001c0: ece5 d93f daf5 043f af38 5c3d 5d0d be3f
000001d0: b5e0 ff3e aaaf 0840 be01 95bf e143 8bbf
000001e0: 6e00 f440 b565 febf 8bb3 b3c0 90e3 6740
000001f0: 1be9 2fc0 c9fd 71bf d80e 20bd 6683 1f3e
00000200: 46cb b0bc 594b e93d 7e3c 103f 5543 a83c
00000210: b579 0a3d b5df c53e bc9f 15bd e0f1 0cbe
00000220: 2ab1 ffbe d42d 89be 7f39 1bbf c8a7 94bf
00000230: 6bae 01bf 34b5 b6be c181 21bf a49d 02be

conv2d_7.w_0_deepcopy_35_bias f4 [16]
2.1548064 0.7411406 1.6008126 8.347618 -1.066478 2.5190444 4.236955 0.6843977
2.671739 2.140248 -1.0219549 4.369571 -0.5491063 -1.407614 0.07160616 1.1828489
00000000: 59e8 0940 64bb 3d3f 6de7 cc3f d88f 0541
00000010: 5a82 88bf 0638 2140 2395 8740 b034 2f3f
00000020: c6fd 2a40 d3f9 0840 6bcf 82bf 87d3 8b40
00000030: 3b92 0cbf b22c b4bf 40a6 923d 9867 973f

conv2d_8.w_0_deepcopy_40 f4 [32, 16, 1, 1]
-0.15167224 0.48062292 0.025720088 0.10920698 0.05440891 0.17803507 0.012710238 -0.052294217
-0.08285752 0.23502965 -0.19750781 -0.2272889 -0.14351487 -0.0069992994 -1.4683667 -0.24137853
0.06055333 -0.039207194 -0.005893425 -0.0025247305 -0.21306534 0.037229113 -0.051634893 0.0023438006
-0.009655869 0.05348614 -0.08801999 -0.28829968 0.019141868 0.022504697 -0.029809548 -0.0040103584
-0.0088671725 -0.002721868 -0.0017195549 -0.0026003537 0.00012545518 0.00043962544 -0.01049661 0.028144596
-0.039131735 0.00020262958 -0.01945582 -0.03169069 -0.022635734 0.009409448 -0.00044326298 -0.0035973678
-0.05830279 -0.111800306 -0.105149165 -0.00018501765 -0.1712455 -0.104992 -0.012803831 -0.38547492
-0.120125994 -0.23524748 -0.067002706 0.066286296 0.015859874 0.011724674 -0.52482766 1.899301
0.08621507 -0.06685612 -0.005391513 0.08110889 -0.17374022 -0.015098288 -0.12525952 0.08768788
0.04221365 0.03202411 -0.080748774 -0.16355322 0.039460156 0.008655346 0.038404282 0.007829409
0.08336546 0.08416408 0.33510324 0.06368678 -0.82220787 -0.17577846 -0.49021864 0.19097875
-0.103310585 0.15627746 -0.5143733 -0.8636505 -0.2724061 -0.0476694 -0.042293794 0.017073527
-0.066407904 -0.006171579 -0.070655756 -0.019804904 0.11376803 0.1365194 -0.10230308 -0.26195467
0.54781604 0.3606925 -0.00952134 -0.2179242 0.16349943 0.006470303 0.4754571 0.027670555
-0.31429118 0.07387215 0.06533301 -0.22750929 -0.3911659 0.07646267 0.02331475 -0.0065026786
-0.0923951 0.028069481 0.25094196 -0.97819823 -0.19176684 0.04440465 -0.22463548 -0.09923365
0.0027865905 0.0049987584 -0.07690886 -0.026631117 0.017714318 0.018733311 0.05585266 -0.058100086
0.0065836385 0.013797427 -0.013442035 -0.015968587 -0.047454968 0.0102299135 -0.0033926915 -0.010408608
-0.32762185 -0.7858609 0.05721835 -0.4017383 0.11800772 -0.14820217 -0.1522233 -0.3223043
-0.112844415 -0.32749024 1.6748883 -0.50134945 0.16416281 -0.21608613 -0.54843026 -0.2762491
0.22742736 -3.388333 0.75017613 0.04041664 1.5207771 -0.5241596 -1.507455 -1.1847906
0.28211856 -0.35719624 0.2051489 -1.1672177 0.8456229 0.32353655 -2.1839755 -0.14415112
0.0015218933 -0.01021986 -0.0022223576 0.01795393 -0.006483633 -0.09337263 0.023362624 -0.014601573
0.0091389865 0.08174643 -0.022287492 0.017328251 0.034357734 0.0041289655 0.008521057 -0.008553728
0.010961378 0.0071791043 0.018162744 -0.0031528668 -0.008780938 -0.0061639785 0.023171162 -0.003997522
-0.0013490213 0.0010764372 -0.00839088 -0.024639945 -0.008298104 0.0007095258 -0.0042716432 -0.0011338317
-0.038919795 -0.010795031 0.21992627 -0.24001448 -0.19114742 -0.1308209 -0.33535102 0.5050923
-0.13652061 0.024508553 -0.014481392 0.17269795 0.034261715 -0.034663852 -0.044016324 -0.02595038
0.0036497496 -0.0063587413 -0.03614162 0.005839884 0.0019849837 0.11425768 -0.057930827 -0.0011325934
0.01089432 -0.1315397 -0.012051465 -0.004194321 -0.010980276 0.004906516 0.0023291465 0.011478297
0.08626274 0.049723085 -0.17374396 -0.09392647 -0.1431847 0.089766346 0.073486894 0.07572059
0.03378657 0.037461385 0.044635717 0.11116073 0.07904711 -0.049665798 0.14990234 -0.122148156
00000000: f84f 1bbe 3514 f63e efb2 d23c e9a7 df3d
00000010: e1db 5e3d d34e 363e 9a3e 503c 7632 56bd
00000020: 34b1 a9bd 9dab 703e 7d3f 4abe 6cbe 68be
00000030: 90f5 12be 615a e5bb 71f3 bbbf ef2b 77be
00000040: c506 783d b997 20bd a21d c1bb f375 25bb
00000050: cd2d 5abe 8e7d 183d 1c7f 53bd 739a 193b
00000060: a633 1ebc 4814 5b3d d343 b4bd 049c 93be
00000070: 68cf 9c3c c55b b83c 2733 f4bc 5369 83bb
00000080: 9e47 11bc 5e61 32bb b062 e1ba b26a 2abb
00000090: 9e8c 0339 877d e639 f9f9 2bbc 7f8f e63c
000000a0: 9948 20bd f778 5439 d061 9fbc 19ce 01bd
000000b0: 936e b9bc 162a 1a3c c065 e8b9 d1c1 6bbb
000000c0: e8ce 6ebd 8ff7 e4bd 7258 d7bd 4c01 42b9
000000d0: fb5a 2fbe 0c06 d7bd 29c7 51bc f85c c5be
000000e0: 9e04 f6bd b7e4 70be b738 89bd 1cc1 873d
000000f0: 91ec 813c d918 403c 1b5b 06bf 4c1c f33f
00000100: 8791 b03d ddeb 88bd 4aab b0bb 6b1c a63d
00000110: f5e8 31be cf5e 77bc 0844 00be b495 b33d
00000120: 38e8 2c3d b72b 033d 9d5f a5bd 7f7a 27be
00000130: f9a0 213d 27cf 0d3c cf4d 1d3d ec46 003c
00000140: 83bb aa3d 385e ac3d a792 ab3e 376e 823d
00000150: 377c 52bf 45ff 33be f0fd fabe ef8f 433e
00000160: 8094 d3bd 3307 203e f8ad 03bf 3318 5dbf
00000170: d078 8bbe fd40 43bd 423c 2dbd c8dd 8b3c
00000180: de00 88bd f53a cabb f7b3 90bd e53d a2bc
00000190: 37ff e83d becb 0b3e 4784 d1bd ec1e 86be
000001a0: ac3d 0c3f b0ac b83e 65ff 1bbc 8627 5fbe
000001b0: 656c 273e d604 d43b 1d6f f33e 5cad e23c
000001c0: c6ea a0be 484a 973d 50cd 853d 32f8 68be
000001d0: e646 c8be 7698 9c3d 93fe be3c 6c14 d5bb
000001e0: a439 bdbd f8f1 e53c 777b 803e 336b 7abf
000001f0: 875e 44be a6e1 353d d806 66be 033b cbbd
00000200: 3b9f 363b a0cc a33b 6482 9dbd 8029 dabc
00000210: 9e1d 913c 9a76 993c c2c5 643d 5bfa 6dbd
00000220: 90bb d73b 9a0e 623c fb3b 5cbc 8ed0 82bc
00000230: 2460 42bd 5e9b 273c eb57 5ebb de88 2abc
00000240: 0dbe a7be 2e2e 49bf ca5d 6a3d a4b0 cdbe
00000250: 08ae f13d 4fc2 17be 6de0 1bbe 1205 a5be
00000260: f91a e7bd cdac a7be bd62 d63f 7058 00bf
00000270: 4c1a 283e af45 5dbe ed65 0cbf 8670 8dbe
00000280: b8e2 683e 73da 58c0 8b0b 403f eb8b 253d
00000290: d3a8 c23f 532f 06bf 49f4 c0bf 38a7 97bf
000002a0: d871 903e 6de2 b6be 8e12 523e 6467 95bf
000002b0: be7a 583f 95a6 a53e 41c6 0bc0 5a9c 13be
000002c0: 447a c73a 3371 27bc f9a4 11bb 1f14 933c
000002d0: a874 d4bb 263a bfbd f962 bf3c 703b 6fbc
000002e0: b0bb 153c ac6a a73d 4294 b6bc faf3 8d3c
000002f0: b2ba 0c3d 464c 873b e79b 0b3c f024 0cbc
00000300: 5a97 333c b13e eb3b 09ca 943c 54a0 4ebb
00000310: ecdd 0fbc 33fb c9bb 73d1 bd3c a5fd 82bb
00000320: a5d1 b0ba 3d17 8d3a e779 09bc b6d9 c9bc
00000330: c5f4 07bc 78ff 393a 24f9 8bbb 149d 94ba
00000340: 5d6a 1fbd a4dd 30bc 5a34 613e 5bc6 75be
00000350: 26bc 43be eaf5 05be 21b3 abbe bb4d 013f
00000360: 0fcc 0bbe 29c6 c83c 5c43 6dbc bbd7 303e
00000370: 0356 0c3d affb 0dbd 764a 34bd e495 d4bc
00000380: a330 6f3b fd5c d0bb 3c09 14bd 7f5c bf3b
00000390: 8016 023b eeff e93d e048 6dbd 8773 94ba
000003a0: 177e 323c 58b2 06be 8273 45bc 8470 89bb
000003b0: 9ee6 33bc d7c6 a03b 98a4 183b 780f 3c3c
000003c0: 85aa b03d 6faa 4b3d f0e9 31be 855c c0bd
000003d0: 039f 12be 6bd7 b73d 4c80 963d 6613 9b3d
000003e0: c963 0a3d 1c71 193d f1d3 363d 3da8 e33d
000003f0: 74e3 a13d 5d6e 4bbd 0080 193e d028 fabd

conv2d_8.w_0_deepcopy_40_bias f4 [32]
5.700929 1.2807621 0.10753095 1.7049062 0.5084863 5.7313166 -0.5478829 7.002448
0.10725296 8.159715 16.359915 -0.13463679 -0.12355955 2.1124265 0.24830315 -0.49430764
-0.072678804 1.891006 6.2553444 0.03782335 0.11927414 -9.222238 2.4454308 1.4350549
-0.46939707 1.1851771 -1.649818 -8.8681345 -0.57542837 -0.10316253 0.09736081 9.232779
00000000: 036e b640 03f0 a33f 3039 dc3d 5e3a da3f
00000010: 282c 023f f266 b740 0e42 0cbf 0e14 e040
00000020: 71a7 db3d 318e 0241 1be1 8241 3ade 09be
00000030: ca0c fdbd ff31 0740 2e43 7e3e e415 fdbe
00000040: a0d8 94bd 7c0c f23f c82b c840 a8ec 1a3d
00000050: 0046 f43d 498e 13c1 f081 1c40 e1af b73f
00000060: d054 f0be e2b3 973f 3c2d d3bf e1e3 0dc1
00000070: 464f 13bf e046 d3bd 1b65 c73d 76b9 1341

conv2d_9.w_0_deepcopy_45 f4 [32, 1, 3, 3]
-0.4170481 0.20685816 0.21202268 2.247889 -1.8217087 -0.49884057 -0.15505128 -0.035841625
0.16179368 0.9847033 4.059688 1.6697166 -0.13836414 -0.07367452 -0.24143064 -2.5934014
-4.50891 -1.0973083 -5.8340487 -6.79621 -2.1174004 -5.2687984 -16.805853 0.40348822
7.8561296 24.599497 8.596098 -0.34359694 0.51261383 -0.3312292 0.4794928 0.37597296
0.41567084 -0.17138413 0.5791747 -0.36967814 -4.578265 4.932783 -2.3309035 -4.499914
-2.8957005 -3.41441 5.7828956 -5.303663 3.7239306 0.27546313 -0.06545927 -0.13853146
-0.2942961 -0.9943302 1.4265705 0.18880184 -0.32383257 -0.02263259 0.016134767 -0.050345965
-0.24001123 0.45254922 1.7484057 0.3026784 -0.058724664 0.66167575 -0.2450059 -0.20938227
0.6764795 -0.49951962 0.08053983 0.4613663 -0.10671673 0.13603322 -0.9221896 0.84578425
1.2071811 1.5837419 0.5270262 -2.777592 -10.0834875 -1.9548187 0.6398969 -1.5702884
0.47803923 -0.014895593 0.069646105 -0.060858823 -0.29639298 -0.58996344 -0.06249816 -0.0046033887
-0.09447083 0.055100564 -0.0646509 -0.03027605 0.040970925 0.47350237 0.5882826 0.24635038
-0.032112144 0.19322358 -0.011838152 -0.38315532 -1.5466708 -2.0150933 2.671284 -6.0670276
2.799496 -1.3583446 -5.8917356 0.33039606 2.1822891 2.0979996 -1.0879358 19.0573
7.0246863 20.303768 2.8588643 9.111745 -4.530333 0.4364182 -0.011054213 -0.41253552
-0.0911026 0.058506187 -0.079642825 -0.49882796 -0.15807971 0.67498904 2.9624326 2.3772528
-0.53005016 -1.9119958 -13.882813 -2.6280446 -0.98648703 0.029306073 3.851414 -0.27588174
-1.1853408 0.027532047 -0.4520919 -4.6179004 -0.72475344 -0.9832397 -2.7081163 0.3862574
0.39452773 2.2911692 -0.30713135 -0.70959204 -11.455783 3.6718037 0.78850937 -2.0050912
1.8468934 0.26570916 0.4865035 0.19494203 -0.44770816 -1.3065337 -0.113455795 0.4164082
0.57493466 0.22631167 0.41693807 -0.046208218 0.4001672 -0.5604001 -0.72043586 -0.5021748
0.5062323 -0.1200639 0.45363498 -4.2747493 -0.51471174 2.6754668 3.248387 19.962357
-6.6483603 0.3106126 -15.408594 2.7964344 0.22336268 3.8173268 0.6554366 -0.4697076
2.2150223 0.7308371 -2.0312989 -4.9193964 -0.4113428 -0.0063011786 0.009219666 -0.009362343
-0.05257194 -0.08967754 -0.019256 -0.00034747273 -0.023251249 -0.0048640603 0.45961902 -0.087644234
-0.37348202 -2.3500803 -0.28516805 2.7394936 0.07074093 0.040058706 -0.07256083 -0.19509475
-0.036470488 -0.18106563 -0.056390956 -1.447737 0.149785 0.037541747 -0.42199436 0.095271
0.072844476 -0.15117021 -0.26860747 0.5031705 0.95350623 0.51070416 -0.485465 0.39026684
0.07597279 0.39045554 -0.57121474 0.470207 -0.4961055 2.7969246 -0.3513773 0.41491422
0.68343437 0.48513696 -0.033590544 -0.112972915 -0.008500128 0.04450152 0.4741341 -0.0061816154
-0.113443755 0.047087032 -0.064317174 0.06886576 0.2407662 0.058970537 0.034942895 -0.0933395
0.07327215 -0.29574898 -0.46096534 -0.16637032 -1.7057083 -3.5864143 -1.874798 -0.078903146
00000000: 5487 d5be a0d2 533e 791c 593e 6add 0f40
00000010: c02d e9bf 0868 ffbe c3c5 1ebe abce 12bd
00000020: 3ead 253e 8415 7c3f f7e8 8140 46b9 d53f
00000030: 54af 0dbe abe2 96bd 9839 77be 4afa 25c0
00000040: fe48 90c0 9974 8cbf 87b0 bac0 8d7a d9c0
00000050: 7d83 07c0 ff99 a8c0 6372 86c1 0296 ce3e
00000060: 6a65 fb40 c5cb c441 9e89 0941 f0eb afbe
00000070: a93a 033f e096 a9be 1580 f53e 877f c03e
00000080: cfd2 d43e 527f 2fbe cb44 143f 7446 bdbe
00000090: 2681 92c0 5cd9 9d40 862d 15c0 4cff 8fc0
000000a0: 2853 39c0 b285 5ac0 7b0d b940 9bb7 a9c0
000000b0: e154 6e40 8109 8d3e 820f 86bd 31db 0dbe
000000c0: faad 96be 6d8c 7ebf dd99 b63f 4555 413e
000000d0: 62cd a5be fb67 b9bc 0f2d 843c 9237 4ebd
000000e0: 81c5 75be 88b4 e73e c2cb df3f aaf8 9a3e
000000f0: 4689 70bd 9563 293f d4e2 7abe 4e68 56be
00000100: c32d 2d3f 09c1 ffbe 11f2 a43d 3438 ec3e
00000110: 4d8e dabd 4b4c 0b3e 9e14 6cbf 5185 583f
00000120: e984 9a3f 0eb8 ca3f 30eb 063f 11c4 31c0
00000130: f755 21c1 8037 fabf 49d0 233f 36ff c8bf
00000140: 8fc1 f43e a50c 74bc 9ea2 8e3d 1a47 79bd
00000150: d2c0 97be d807 17bf 12fe 7fbd 06d8 96bb
00000160: ec79 c1bd 21b1 613d b167 84bd 7b05 f8bc
00000170: 21d1 273d e76e f23e b099 163f 4643 7c3e
00000180: 0688 03bd 67dc 453e cff4 41bc ef2c c4be
00000190: 4ff9 c5bf 4af7 00c0 51f6 2a40 1725 c2c0
000001a0: f12a 3340 3cde adbf 1989 bcc0 ac29 a93e
000001b0: a0aa 0b40 a045 0640 7b41 8bbf 5a75 9841
000001c0: 3bca e040 1e6e a241 a2f7 3640 b5c9 1141
000001d0: 7df8 90c0 3572 df3e bb1c 35bc db37 d3be
000001e0: 0094 babd 2fa4 6f3d c71b a3bd 6166 ffbe
000001f0: a6df 21be 15cc 2c3f 7f98 3d40 e924 1840
00000200: 5eb1 07bf 47bc f4bf 0120 5ec1 e231 28c0
00000210: 6a8a 7cbf 4a13 f03c 917d 7640 5f40 8dbe
00000220: 3fb9 97bf e38a e13c 9778 e7be d7c5 93c0
00000230: 7189 39bf 99b5 7bbf c751 2dc0 88c3 c53e
00000240: 8aff c93e 84a2 1240 5240 9dbe d3a7 35bf
00000250: e34a 37c1 d5fe 6a40 c0db 493f 6a53 00c0
00000260: 0167 ec3f 080b 883e fd16 f93e e29e 473e
00000270: 013a e5be 7f3c a7bf 835b e8bd 7533 d53e
00000280: eb2e 133f 3fbe 673e e878 d53e d444 3dbd
00000290: b7e2 cc3e 6276 0fbf 7c6e 38bf 878e 00bf
000002a0: 7198 013f 10e4 f5bd d842 e83e bfca 88c0
000002b0: 26c4 03bf d93a 2b40 93e5 4f40 e8b2 9f41
000002c0: 5ebf d4c0 9d08 9f3e 9a89 76c1 c8f8 3240
000002d0: 30b9 643e 154f 7440 b1ca 273f 847d f0be
000002e0: edc2 0d40 2418 3b3f cd00 02c0 b26b 9dc0
000002f0: 869b d2be 1e7a cebb 150e 173c 8364 19bc
00000300: ad55 57bd dca8 b7bd c2be 9dbc 002d b6b9
00000310: 6779 bebc b262 9fbb 2f53 eb3e d27e b3bd
00000320: 0939 bfbe b767 16c0 8c01 92be dd53 2f40
00000330: 9fe0 903d 9914 243d c69a 94bd ebc6 47be
00000340: 1462 15bd 4569 39be 34fa 66bd 724f b9bf
00000350: 3d61 193e 60c5 193d a50f d8be 711d c33d
00000360: 7c2f 953d 5dcc 1abe eb86 89be c8cf 003f
00000370: fc18 743f 82bd 023f de8e f8be 0ed1 c73e
00000380: 9f97 9b3d cae9 c73e 213b 12bf f9be f03e
00000390: 8a01 febe d000 3340 bae7 b3be a36f d43e
000003a0: 8ef5 2e3f df63 f83e 3d96 09bd 585e e7bd
000003b0: 1f44 0bbc 3a47 363d b4c1 f23e 268f cabb
000003c0: 3355 e8bd 55de 403d b9b8 83bd 7e09 8d3d
000003d0: 6a8b 763e 178b 713d 4820 0f3d c828 bfbd
000003e0: b50f 963d 696c 97be a603 ecbe fb5c 2abe
000003f0: a654 dabf d087 65c0 62f9 efbf f997 a1bd

conv2d_9.w_0_deepcopy_45_bias f4 [32]
-0.55954385 -1.0345873 -1.0834378 -0.5642132 -1.2277358 -0.6315984 -0.3796044 -2.200993
1.9023978 2.893854 -0.5807756 2.417335 2.3756328 2.8925767 2.4345894 0.4843728
1.9519587 1.7388834 2.1447108 -0.79692125 2.6785774 2.9535768 3.0908017 4.4037895
-0.5003006 2.2050061 1.5173469 0.18026811 1.6305587 -1.6997252 2.1079636 2.7506802
00000000: 443e 0fbf 5b6d 84bf 17ae 8abf 4770 10bf
00000010: 7226 9dbf 6fb0 21bf 825b c2be 12dd 0cc0
00000020: c581 f33f e734 3940 b6ad 14bf 9eb5 1a40
00000030: 5e0a 1840 fa1f 3940 50d0 1b40 b6ff f73e
00000040: c8d9 f93f bb93 de3f f142 0940 0803 4cbf
00000050: d06d 2b40 6707 3d40 b2cf 4540 d8eb 8c40
00000060: b313 00bf d21e 0d40 6c38 c23f 3498 383e
00000070: 26b6 d03f 9890 d9bf e0e8 0640 250b 3040

conv2d_10.w_0_deepcopy_50 f4 [32, 32, 1, 1]
-0.021777565 -0.15049699 0.06873276 -0.21617538 -0.11511181 0.043096863 -0.9889721 -0.17908336
1.2950435 0.2135237 0.265942 -0.3613708 -0.23903608 -0.17427443 0.114486724 0.39634767
-0.11212831 0.39396185 0.10831037 -0.11569442 -0.02303865 0.41843745 -0.049923435 -0.66186726
0.38717905 0.16038857 -0.13765034 -0.03258701 -0.57546836 0.9055224 -0.31141785 0.08891269
0.013344007 0.12659419 0.30129987 0.004215668 -0.15422556 0.059715807 -0.045166433 -0.32013354
0.13640243 0.0108778775 0.035713837 0.027335813 -0.112309374 -0.014601283 0.11478421 -0.14202228
-0.03765918 0.0154328775 0.10378325 0.099720836 0.013999055 -1.0075608 -0.12262138 -0.36444545
0.056123644 -0.0874271 0.29025277 0.13584784 -0.0885017 0.09777465 -0.23989584 -0.004463259
-0.03617671 0.055819433 0.32248098 -0.34803623 0.04055633 -0.18288699 -0.56100976 0.0061215363
-0.83232033 -0.027998595 -0.109545484 0.32471648 1.2652577 0.37079227 -0.32134438 -0.4808689
-0.014939305 -0.21091424 0.046474587 0.19662523 0.10087639 -0.94997954 -0.021888088 0.08429914
0.07166301 0.020834472 1.4161057 0.005367361 0.5577126 -0.58534193 0.12720199 0.023179857
-0.2279682 0.06249681 0.029961815 0.6780094 0.063215956 0.14118664 0.2685748 0.17119433
0.098706506 -0.18580224 -0.19273211 -0.09391502 -0.0771233 -0.027617298 -0.029511828 -0.15079954
0.18504514 -0.16198923 0.12887856 0.008224581 -0.0028909144 -0.017846229 -0.04159103 -0.22460485
-0.0637654 -0.059302133 -0.08715867 0.010755188 -0.26699105 0.04941247 0.43911645 -0.063353874
-0.03385577 0.0036307639 -0.0069504753 0.062909074 -0.059519228 -0.033354927 -0.33952665 0.05100827
0.27056777 0.052548725 -0.13160743 0.22719847 -0.038423672 0.6428502 0.28830063 -0.11806433
-0.014242667 0.32546118 0.030810794 0.020273603 -0.10717869 0.011225154 -0.07060365 -0.12791263
-0.16102003 -0.016218297 -0.08094739 0.02024357 -0.46387738 0.21668188 -0.014439441 0.0083225
0.0045130053 0.01276588 0.17590629 -0.01851605 -0.12330595 0.034794375 0.16950685 -0.20806459
-0.44968122 0.043306027 0.10501165 -0.10122694 -0.101965025 0.24488261 0.41511115 0.025660602
0.029743921 -0.25937945 -0.09288542 0.035647344 -0.05442975 0.047907367 0.018531354 0.02674767
-0.010465266 0.036323003 -0.014878719 -0.0056838226 0.24436952 -0.15912542 0.1486567 -0.00084740994
-0.002364583 -0.0031023128 -0.025973488 0.019489877 -0.009152448 -0.0003282195 0.006358869 0.0018819179
-0.0044210353 -0.023920748 -0.036326997 0.0047675106 -0.062553935 0.0120598925 -0.00823956 -0.005196162
-0.02524817 0.003969219 -0.023145895 -0.021938294 -0.003154674 0.0486676 0.0038377296 0.05815907
-0.011151176 0.00095791556 -0.023995563 -0.0048442646 0.005651702 0.036035206 0.015780307 0.011421873
-0.051069416 0.026797868 -0.02021292 -0.03261067 0.023589473 0.03452491 0.035537902 -0.07969494
0.22756545 0.05444416 -0.016439991 -0.0055040075 0.03052797 0.0206427 0.009209323 -0.087111935
0.18971236 0.01056337 -0.022356475 0.020430854 -0.0016093532 0.09811577 -0.13780071 -0.054613404
0.07455258 -0.05879959 -0.11484185 0.032972794 -0.066904046 0.048853967 0.18935671 -0.054650027
00000000: dd66 b2bc e21b 1abe c3c3 8c3d 145d 5dbe
00000010: bebf ebbd 5686 303d 472d 7dbf a161 37be
00000020: fcc3 a53f f5a5 5a3e 8d29 883e 9805 b9be
00000030: e0c5 74be ff74 32be 0478 ea3d 15ee ca3e
00000040: 87a3 e5bd 5eb5 c93e d4d1 dd3d 32f1 ecbd
00000050: 8dbb bcbc 6f3d d63e 847c 4cbd 2270 29bf
00000060: 553c c63e e73c 243e 36f4 0cbe f579 05bd
00000070: e551 13bf 51d0 673f 2972 9fbe db17 b63d
00000080: d2a0 5a3c e8a1 013e fa43 9a3e 9623 8a3b
00000090: 4eed 1dbe 9098 743d 7000 39bd 8be8 a3be
000000a0: 14ad 0b3e 2039 323c ac48 123d 5bef df3c
000000b0: 7502 e6bd 383a 6fbc fc13 eb3d 4a6e 11be
000000c0: 8340 1abd 2eda 7c3c 508c d43d 703a cc3d
000000d0: 4b5c 653c c1f7 80bf eb20 fbbd 9898 babe
000000e0: e8e1 653d fb0c b3bd 039c 943e b21b 0b3e
000000f0: 6140 b5bd 133e c83d 41a7 75be 8840 92bb
00000100: 082e 14bd eba2 643d 3a1c a53e ce31 b2be
00000110: 651e 263d ba46 3bbe 569e 0fbf 2b97 c83b
00000120: f212 55bf 4f5d e5bc 6259 e0bd 3d41 a63e
00000130: f7f3 a13f 7cd8 bd3e 4087 a4be 7334 f6be
00000140: fdc3 74bc e7f9 57be 235c 3e3d 2058 493e
00000150: 4898 ce3d dc31 73bf a64e b3bc 07a5 ac3d
00000160: 0ec4 923d 0ead aa3c f442 b53f b0e0 af3b
00000170: 41c6 0e3f f8d8 15bf 3d41 023e afe3 bd3c
00000180: 7f70 69be a8fc 7f3d 7b72 f53c 0692 2d3f
00000190: 5e77 813d 3b93 103e a382 893e 914d 2f3e
000001a0: a326 ca3d f142 3ebe 915b 45be 8556 c0bd
000001b0: d2f2 9dbd ac3d e2bc cac2 f1bc 326b 1abe
000001c0: 797c 3d3e 81e0 25be bef8 033e 65c0 063c
000001d0: 7f75 3dbb 4132 92bc 5b5b 2abd d0fe 65be
000001e0: 6f97 82bd cbe6 72bd 3f80 b2bd 8736 303c
000001f0: 0db3 88be bb64 4a3d dfd3 e03e adbf 81bd
00000200: 59ac 0abd 1cf2 6d3b d0c0 e3bb 79d6 803d
00000210: 6fca 73bd 2d9f 08bd 70d6 adbe 0cee 503d
00000220: dc87 8a3e 553d 573d 19c4 06be b7a6 683e
00000230: 2462 1dbd d591 243f 249c 933e b6cb f1bd
00000240: 135a 69bc d9a2 a63e eb66 fc3c d414 a63c
00000250: 8080 dbbd b5e9 373c a598 90bd 87fb 02be
00000260: 6fe2 24be 3cdc 84bc bfc7 a5bd d8d5 a53c
00000270: 5681 edbe dbe1 5d3e 6893 6cbc 185b 083c
00000280: d5e1 933b fb27 513c c720 343e f9ae 97bc
00000290: d487 fcbd 8c84 0e3d 3493 2d3e e20e 55be
000002a0: 9e3c e6be a961 313d 5910 d73d 1250 cfbd
000002b0: 0ad3 d0bd 82c2 7a3e 7389 d43e 2f36 d23c
000002c0: 86a9 f33c 62cd 84be b63a bebd f302 123d
000002d0: bbf1 5ebd 843a 443d 11cf 973c ee1d db3c
000002e0: 8276 2bbc 6ec7 143d dfc5 73bc 5c3f babb
000002f0: 013c 7a3e c6f1 22be 7639 183e b824 5eba
00000300: 1ff7 1abb 2c50 4bbb 5ac6 d4bc 3ca9 9f3c
00000310: 26f4 15bc e014 acb9 0f5e d03b b0aa f63a
00000320: 55de 90bb 72f5 c3bc 9ecb 14bd c738 9c3b
00000330: 471c 80bd db96 453c 38ff 06bc 9144 aabb
00000340: 40d5 cebc 3910 823b 769c bdbc f0b7 b3bc
00000350: a6be 4ebb ad57 473d 6b82 7b3b 3438 6e3d
00000360: 6cb3 36bc a01c 7b3a 5892 c4bc a3bc 9ebb
00000370: ea31 b93b a799 133d b445 813c cf22 3b3c
00000380: 2a2e 51bd 3487 db3c 9195 a5bc c492 05bd
00000390: b63e c13c fe69 0d3d 3190 113d 1a37 a3bd
000003a0: eb06 693e d700 5f3d 29ad 86bc f65a b4bb
000003b0: cb15 fa3c e11a a93c b3e2 163c be67 b2bd
000003c0: f543 423e fc11 2d3c ed24 b7bc 9b5e a73c
000003d0: eff0 d2ba ecf0 c83d a11b 0dbe 4eb2 5fbd
000003e0: 06af 983d d7d7 70bd 3432 ebbd 7b0e 073d
000003f0: fd04 89bd 191b 483d bae6 413e b5d8 5fbd

conv2d_10.w_0_deepcopy_50_bias f4 [32]
-1.062476 5.4454136 4.8069735 0.7551409 -3.7250342 -1.8969303 0.17144617 -1.5497761
1.6191525 1.8703384 -2.0289605 -2.9698043 4.6741805 -0.7030115 -5.380396 0.078685485
-0.102134965 -2.226493 -0.45914343 -7.650791 -1.4628154 0.8133878 -2.5756207 3.3866837
0.28707707 0.19137003 0.24943617 1.6952584 0.6447326 -1.4174364 1.0510235 0.17123775
00000000: 37ff 87bf d440 ae40 bad2 9940 ea50 413f
00000010: f666 6ec0 9dce f2bf 968f 2f3e 105f c6bf
00000020: 6440 cf3f 4067 ef3f 7dda 01c0 4611 3ec0
00000030: e392 9540 90f8 33bf 342c acc0 db25 a13d
00000040: 232c d1bd dc7e 0ec0 d914 ebbe 48d3 f4c0
00000050: 893d bbbf 2f3a 503f f8d6 24c0 6dbf 5840
00000060: c4fb 923e 81f6 433e 326c 7f3e 3afe d83f
00000070: 320d 253f 8e6e b5bf f087 863f f358 2f3e
